…

 > Reading training set...
   Found 8679 images belonging to 3 classes

 > Reading validation set...
   Found 501 images belonging to 3 classes

 > Reading testing set...
   Found 2500 images belonging to 3 classes

 > Creating optimizer...

 > Building model...
____________________________________________________________________________________________________
Layer (type)                     Output Shape          Param #     Connected to                     
====================================================================================================
input_1 (InputLayer)             (None, 3, 300, 300)   0                                            
____________________________________________________________________________________________________
yoloconvolution2d_1 (YOLOConvolu (None, 32, 300, 300)  1024        input_1[0][0]                    
____________________________________________________________________________________________________
leakyrelu_1 (LeakyReLU)          (None, 32, 300, 300)  0           yoloconvolution2d_1[0][0]        
____________________________________________________________________________________________________
maxpooling2d_1 (MaxPooling2D)    (None, 32, 150, 150)  0           leakyrelu_1[0][0]                
____________________________________________________________________________________________________
yoloconvolution2d_2 (YOLOConvolu (None, 64, 150, 150)  18752       maxpooling2d_1[0][0]             
____________________________________________________________________________________________________
leakyrelu_2 (LeakyReLU)          (None, 64, 150, 150)  0           yoloconvolution2d_2[0][0]        
____________________________________________________________________________________________________
maxpooling2d_2 (MaxPooling2D)    (None, 64, 75, 75)    0           leakyrelu_2[0][0]                
____________________________________________________________________________________________________
yoloconvolution2d_3 (YOLOConvolu (None, 128, 75, 75)   74368       maxpooling2d_2[0][0]             
____________________________________________________________________________________________________
leakyrelu_3 (LeakyReLU)          (None, 128, 75, 75)   0           yoloconvolution2d_3[0][0]        
____________________________________________________________________________________________________
yoloconvolution2d_4 (YOLOConvolu (None, 64, 75, 75)    8512        leakyrelu_3[0][0]                
____________________________________________________________________________________________________
leakyrelu_4 (LeakyReLU)          (None, 64, 75, 75)    0           yoloconvolution2d_4[0][0]        
____________________________________________________________________________________________________
yoloconvolution2d_5 (YOLOConvolu (None, 128, 75, 75)   74368       leakyrelu_4[0][0]                
____________________________________________________________________________________________________
leakyrelu_5 (LeakyReLU)          (None, 128, 75, 75)   0           yoloconvolution2d_5[0][0]        
____________________________________________________________________________________________________
maxpooling2d_3 (MaxPooling2D)    (None, 128, 37, 37)   0           leakyrelu_5[0][0]                
____________________________________________________________________________________________________
yoloconvolution2d_6 (YOLOConvolu (None, 256, 37, 37)   296192      maxpooling2d_3[0][0]             
____________________________________________________________________________________________________
leakyrelu_6 (LeakyReLU)          (None, 256, 37, 37)   0           yoloconvolution2d_6[0][0]        
____________________________________________________________________________________________________
yoloconvolution2d_7 (YOLOConvolu (None, 128, 37, 37)   33408       leakyrelu_6[0][0]                
____________________________________________________________________________________________________
leakyrelu_7 (LeakyReLU)          (None, 128, 37, 37)   0           yoloconvolution2d_7[0][0]        
____________________________________________________________________________________________________
yoloconvolution2d_8 (YOLOConvolu (None, 256, 37, 37)   296192      leakyrelu_7[0][0]                
____________________________________________________________________________________________________
leakyrelu_8 (LeakyReLU)          (None, 256, 37, 37)   0           yoloconvolution2d_8[0][0]        
____________________________________________________________________________________________________
maxpooling2d_4 (MaxPooling2D)    (None, 256, 18, 18)   0           leakyrelu_8[0][0]                
____________________________________________________________________________________________________
yoloconvolution2d_9 (YOLOConvolu (None, 512, 18, 18)   1182208     maxpooling2d_4[0][0]             
____________________________________________________________________________________________________
leakyrelu_9 (LeakyReLU)          (None, 512, 18, 18)   0           yoloconvolution2d_9[0][0]        
____________________________________________________________________________________________________
yoloconvolution2d_10 (YOLOConvol (None, 256, 18, 18)   132352      leakyrelu_9[0][0]                
____________________________________________________________________________________________________
leakyrelu_10 (LeakyReLU)         (None, 256, 18, 18)   0           yoloconvolution2d_10[0][0]       
____________________________________________________________________________________________________
yoloconvolution2d_11 (YOLOConvol (None, 512, 18, 18)   1182208     leakyrelu_10[0][0]               
____________________________________________________________________________________________________
leakyrelu_11 (LeakyReLU)         (None, 512, 18, 18)   0           yoloconvolution2d_11[0][0]       
____________________________________________________________________________________________________
yoloconvolution2d_12 (YOLOConvol (None, 256, 18, 18)   132352      leakyrelu_11[0][0]               
____________________________________________________________________________________________________
leakyrelu_12 (LeakyReLU)         (None, 256, 18, 18)   0           yoloconvolution2d_12[0][0]       
____________________________________________________________________________________________________
yoloconvolution2d_13 (YOLOConvol (None, 512, 18, 18)   1182208     leakyrelu_12[0][0]               
____________________________________________________________________________________________________
leakyrelu_13 (LeakyReLU)         (None, 512, 18, 18)   0           yoloconvolution2d_13[0][0]       
____________________________________________________________________________________________________
maxpooling2d_5 (MaxPooling2D)    (None, 512, 9, 9)     0           leakyrelu_13[0][0]               
____________________________________________________________________________________________________
yoloconvolution2d_14 (YOLOConvol (None, 1024, 9, 9)    4723712     maxpooling2d_5[0][0]             
____________________________________________________________________________________________________
leakyrelu_14 (LeakyReLU)         (None, 1024, 9, 9)    0           yoloconvolution2d_14[0][0]       
____________________________________________________________________________________________________
yoloconvolution2d_15 (YOLOConvol (None, 512, 9, 9)     526848      leakyrelu_14[0][0]               
____________________________________________________________________________________________________
leakyrelu_15 (LeakyReLU)         (None, 512, 9, 9)     0           yoloconvolution2d_15[0][0]       
____________________________________________________________________________________________________
yoloconvolution2d_16 (YOLOConvol (None, 1024, 9, 9)    4723712     leakyrelu_15[0][0]               
__________________________________________________________________________________