…
 > Reading validation set...
   Found 53 images belonging to 45 classes

 > Reading testing set...
   Found 4243 images belonging to 45 classes

 > Creating optimizer...

 > Building model...
45
Tensor("input_1:0", shape=(?, 300, 300, 3), dtype=float32)
(300, 300)
____________________________________________________________________________________________________
Layer (type)                     Output Shape          Param #     Connected to                     
====================================================================================================
input_1 (InputLayer)             (None, 300, 300, 3)   0                                            
____________________________________________________________________________________________________
conv1_1 (Convolution2D)          (None, 300, 300, 64)  1792        input_1[0][0]                    
____________________________________________________________________________________________________
conv1_2 (Convolution2D)          (None, 300, 300, 64)  36928       conv1_1[0][0]                    
____________________________________________________________________________________________________
pool1 (MaxPooling2D)             (None, 150, 150, 64)  0           conv1_2[0][0]                    
____________________________________________________________________________________________________
conv2_1 (Convolution2D)          (None, 150, 150, 128) 73856       pool1[0][0]                      
____________________________________________________________________________________________________
conv2_2 (Convolution2D)          (None, 150, 150, 128) 147584      conv2_1[0][0]                    
____________________________________________________________________________________________________
pool2 (MaxPooling2D)             (None, 75, 75, 128)   0           conv2_2[0][0]                    
____________________________________________________________________________________________________
conv3_1 (Convolution2D)          (None, 75, 75, 256)   295168      pool2[0][0]                      
____________________________________________________________________________________________________
conv3_2 (Convolution2D)          (None, 75, 75, 256)   590080      conv3_1[0][0]                    
____________________________________________________________________________________________________
conv3_3 (Convolution2D)          (None, 75, 75, 256)   590080      conv3_2[0][0]                    
____________________________________________________________________________________________________
pool3 (MaxPooling2D)             (None, 38, 38, 256)   0           conv3_3[0][0]                    
____________________________________________________________________________________________________
conv4_1 (Convolution2D)          (None, 38, 38, 512)   1180160     pool3[0][0]                      
____________________________________________________________________________________________________
conv4_2 (Convolution2D)          (None, 38, 38, 512)   2359808     conv4_1[0][0]                    
____________________________________________________________________________________________________
conv4_3 (Convolution2D)          (None, 38, 38, 512)   2359808     conv4_2[0][0]                    
____________________________________________________________________________________________________
pool4 (MaxPooling2D)             (None, 19, 19, 512)   0           conv4_3[0][0]                    
____________________________________________________________________________________________________
conv5_1 (Convolution2D)          (None, 19, 19, 512)   2359808     pool4[0][0]                      
____________________________________________________________________________________________________
conv5_2 (Convolution2D)          (None, 19, 19, 512)   2359808     conv5_1[0][0]                    
____________________________________________________________________________________________________
conv5_3 (Convolution2D)          (None, 19, 19, 512)   2359808     conv5_2[0][0]                    
____________________________________________________________________________________________________
pool5 (MaxPooling2D)             (None, 19, 19, 512)   0           conv5_3[0][0]                    
____________________________________________________________________________________________________
fc6 (AtrousConvolution2D)        (None, 19, 19, 1024)  4719616     pool5[0][0]                      
____________________________________________________________________________________________________
fc7 (Convolution2D)              (None, 19, 19, 1024)  1049600     fc6[0][0]                        
____________________________________________________________________________________________________
conv6_1 (Convolution2D)          (None, 19, 19, 256)   262400      fc7[0][0]                        
____________________________________________________________________________________________________
conv6_2 (Convolution2D)          (None, 10, 10, 512)   1180160     conv6_1[0][0]                    
____________________________________________________________________________________________________
conv7_1 (Convolution2D)          (None, 10, 10, 128)   65664       conv6_2[0][0]                    
____________________________________________________________________________________________________
zeropadding2d_1 (ZeroPadding2D)  (None, 12, 12, 128)   0           conv7_1[0][0]                    
____________________________________________________________________________________________________
conv7_2 (Convolution2D)          (None, 5, 5, 256)     295168      zeropadding2d_1[0][0]            
____________________________________________________________________________________________________
conv8_1 (Convolution2D)          (None, 5, 5, 128)     32896       conv7_2[0][0]                    
____________________________________________________________________________________________________
conv4_3_norm (Normalize)         (None, 38, 38, 512)   512         conv4_3[0][0]                    
____________________________________________________________________________________________________
conv8_2 (Convolution2D)          (None, 3, 3, 256)     295168      conv8_1[0][0]                    
____________________________________________________________________________________________________
pool6 (GlobalAveragePooling2D)   (None, 256)           0           conv8_2[0][0]                    
____________________________________________________________________________________________________
conv4_3_norm_mbox_conf (Convolut (None, 38, 38, 135)   622215      conv4_3_norm[0][0]               
____________________________________________________________________________________________________
fc7_mbox_conf (Convolution2D)    (None, 19, 19, 270)   2488590     fc7[0][0]                        
____________________________________________________________________________________________________
conv6_2_mbox_conf (Convolution2D (None, 10, 10, 270)   1244430     conv6_2[0][0]                    
____________________________________________________________________________________________________
conv7_2_mbox_conf (Convolution2D (None, 5, 5, 270)     622350      conv7_2[0][0]                    
____________________________________________________________________________________________________
conv8_2_mbox_conf (Convolution2D (None, 3, 3, 270)     622350      conv8_2[0][0]                    
____________________________________________________________________________________________________
conv4_3_norm_mbox_loc (Convoluti (None, 38, 38, 12)    55308       conv4_3_norm[0][0]               
____________________________________________________________________________________________________
fc7_mbox_loc (Convolution2D)     (None, 19, 19, 24)    221208      fc7[0][0]                        
____________________________________________________________________________________________________
conv6_2_mbox_loc (Convolution2D) (None, 10, 10, 24)    110616      conv6_2[0][0]                    
____________________________________________________________________________________________________
conv7_2_mbox_loc (Convolution2D) (None, 5, 5, 24)      55320       conv7_2[0][0]                    
____________________________________________________________________________________________________
conv8_2_mbox_loc (Convolution2D) (None, 3, 3, 24)      55320       conv8_2[0][0]                    
____________________________________________________________________________________________________
conv4_3_norm_mbox_conf_flat (Fla (None, 194940)        0           conv4_3_norm_mbox_conf[0][0]     
____________________________________________________________________________________________________
fc7_mbox_conf_flat (Flatten)     (None, 97470)         0           fc7_mbox_conf[0][0]              
____________________________________________________________________________________________________
conv6_2_mbox_conf_flat (Flatten) (None, 27000)         0           conv6_2_mbox_conf[0][0]          
____________________________________________________________________________________________________
conv7_2_mbox_conf_flat (Flatten) (None, 6750)          0           conv7_2_mbox_conf[0][0]          
____________________________________________________________________________________________________
conv8_2_mbox_conf_flat (Flatten) (None, 2430)          0           conv8_2_mbox_conf[0][0]          
____________________________________________________________________________________________________
pool6_mbox_conf_flat (Dense)     (None, 270)           69390       pool6[0][0]                      
____________________________________________________________________________________________________
conv4_3_norm_mbox_loc_flat (Flat (None, 17328)         0           conv4_3_norm_mbox_loc[0][0]      
____________________________________________________________________________________________________
fc7_mbox_loc_flat (Flatten)      (None, 8664)          0           fc7_mbox_loc[0][0]               
____________________________________________________________________________________________________
conv6_2_mbox_loc_flat (Flatten)  (None, 2400)          0           conv6_2_mbox_loc[0][0]           
____________________________________________________________________________________________________
conv7_2_mbox_loc_flat (Flatten)  (None, 600)           0           conv7_2_mbox_loc[0][0]           
____________________________________________________________________________________________________
conv8_2_mbox_loc_flat (Flatten)  (None, 216)           0           conv8_2_mbox_loc[0][0]           
____________________________________________________________________________________________________
pool6_mbox_loc_flat (Dense)      (None, 24)            6168        pool6[0][0]                      
____________________________________________________________________________________________________
mbox_conf (Merge)                (None, 328860)        0           conv4_3_norm_mbox_conf_flat[0][0]
                                                                   fc7_mbox_conf_flat[0][0]         
                                                                   conv6_2_mbox_conf_flat[0][0]     
                                                                   conv7_2_mbox_conf_flat[0][0]     
                                                                   conv8_2_mbox_conf_flat[0][0]     
                                                                   pool6_mbox_conf_flat[0][0]       
____________________________________________________________________________________________________
pool6_reshaped (Reshape)         (None, 1, 1, 256)     0           pool6[0][0]                      
____________________________________________________________________________________________________
mbox_loc (Merge)                 (None, 29232)         0           conv4_3_norm_mbox_loc_flat[0][0] 
                                                                   fc7_mbox_loc_flat[0][0]          
                                                                   conv6_2_mbox_loc_flat[0][0]      
                                                                   conv7_2_mbox_loc_flat[0][0]      
                                                                   conv8_2_mbox_loc_flat[0][0]      
                                                                   pool6_mbox_loc_flat[0][0]        
____________________________________________________________________________________________________
mbox_conf_logits (Reshape)       (None, 7308, 45)      0           mbox_conf[0][0]                  
____________________________________________________________________________________________________
conv4_3_norm_mbox_priorbox (Prio (None, 4332, 8)       0           conv4_3_norm[0][0]               
____________________________________________________________________________________________________
fc7_mbox_priorbox (PriorBox)     (None, 2166, 8)       0           fc7[0][0]                        
____________________________________________________________________________________________________
conv6_2_mbox_priorbox (PriorBox) (None, 600, 8)        0           conv6_2[0][0]                    
____________________________________________________________________________________________________
conv7_2_mbox_priorbox (PriorBox) (None, 150, 8)        0           conv7_2[0][0]                    
____________________________________________________________________________________________________
conv8_2_mbox_priorbox (PriorBox) (None, 54, 8)         0           conv8_2[0][0]                    
____________________________________________________________________________________________________
pool6_mbox_priorbox (PriorBox)   (None, 6, 8)          0           pool6_reshaped[0][0]             
____________________________________________________________________________________________________
mbox_loc_final (Reshape)         (None, 7308, 4)       0           mbox_loc[0][0]                   
____________________________________________________________________________________________________
mbox_conf_final (Activation)     (None, 7308, 45)      0           mbox_conf_logits[0][0]           
____________________________________________________________________________________________________
mbox_priorbox (Merge)            (None, 7308, 8)       0           conv4_3_norm_mbox_priorbox[0][0] 
                                                                   fc7_mbox_priorbox[0][0]          
                                                                   conv6_2_mbox_priorbox[0][0]      
                                                                   conv7_2_mbox_priorbox[0][0]      
                                                                   conv8_2_mbox_priorbox[0][0]      
                                                                   pool6_mbox_priorbox[0][0]        
____________________________________________________________________________________________________
predictions (Merge)              (None, 7308, 57)      0           mbox_loc_final[0][0]             
                                                                   mbox_conf_final[0][0]            
                                                                   mbox_priorbox[0][0]              
====================================================================================================
Total params: 28,789,137
Trainable params: 28,789,137
…
